channels_last
Model: "sequential"
_________________________________________________________________
Layer (type)                 Output Shape              Param #   
=================================================================
reshape (Reshape)            (None, 1, 128, 2)         0         
_________________________________________________________________
zero_padding2d (ZeroPadding2 (None, 1, 132, 2)         0         
_________________________________________________________________
conv2d (Conv2D)              (None, 1, 132, 256)       3328      
_________________________________________________________________
dropout (Dropout)            (None, 1, 132, 256)       0         
_________________________________________________________________
zero_padding2d_1 (ZeroPaddin (None, 1, 136, 256)       0         
_________________________________________________________________
conv2d_1 (Conv2D)            (None, 1, 136, 80)        122960    
_________________________________________________________________
dropout_1 (Dropout)          (None, 1, 136, 80)        0         
_________________________________________________________________
flatten (Flatten)            (None, 10880)             0         
_________________________________________________________________
dense1 (Dense)               (None, 256)               2785536   
_________________________________________________________________
dropout_2 (Dropout)          (None, 256)               0         
_________________________________________________________________
dense2 (Dense)               (None, 11)                2827      
_________________________________________________________________
activation (Activation)      (None, 11)                0         
_________________________________________________________________
reshape_1 (Reshape)          (None, 11)                0         
=================================================================
Total params: 2,914,651
Trainable params: 2,914,651
Non-trainable params: 0
_________________________________________________________________
channels_last
110000
[0, 2, 4, 6, 8, 10, 12, 14, 16, 18]
['8PSK', 'AM-DSB', 'AM-SSB', 'BPSK', 'CPFSK', 'GFSK', 'PAM4', 'QAM16', 'QAM64', 'QPSK', 'WBFM']
Poisoned training data.
Evaluate ASR on poisoned test data.
Model: "model_1"
_________________________________________________________________
Layer (type)                 Output Shape              Param #   
=================================================================
input (InputLayer)           [(None, 2, 128, 1)]       0         
_________________________________________________________________
conv1 (Conv2D)               (None, 2, 128, 256)       4352      
_________________________________________________________________
max_pooling2d (MaxPooling2D) (None, 2, 64, 256)        0         
_________________________________________________________________
dropout_9 (Dropout)          (None, 2, 64, 256)        0         
_________________________________________________________________
conv2 (Conv2D)               (None, 2, 64, 128)        524416    
_________________________________________________________________
max_pooling2d_1 (MaxPooling2 (None, 2, 32, 128)        0         
_________________________________________________________________
dropout_10 (Dropout)         (None, 2, 32, 128)        0         
_________________________________________________________________
conv3 (Conv2D)               (None, 2, 32, 64)         131136    
_________________________________________________________________
max_pooling2d_2 (MaxPooling2 (None, 2, 16, 64)         0         
_________________________________________________________________
dropout_11 (Dropout)         (None, 2, 16, 64)         0         
_________________________________________________________________
conv4 (Conv2D)               (None, 2, 16, 64)         65600     
_________________________________________________________________
max_pooling2d_3 (MaxPooling2 (None, 2, 8, 64)          0         
_________________________________________________________________
dropout_12 (Dropout)         (None, 2, 8, 64)          0         
_________________________________________________________________
flatten_2 (Flatten)          (None, 1024)              0         
_________________________________________________________________
dense1 (Dense)               (None, 128)               131200    
_________________________________________________________________
dense2 (Dense)               (None, 11)                1419      
=================================================================
Total params: 858,123
Trainable params: 858,123
Non-trainable params: 0
_________________________________________________________________
None
Model: "sequential_2"
_________________________________________________________________
Layer (type)                 Output Shape              Param #   
=================================================================
conv2d_4 (Conv2D)            (None, 71, 71, 32)        2432      
_________________________________________________________________
max_pooling2d_2 (MaxPooling2 (None, 35, 35, 32)        0         
_________________________________________________________________
conv2d_5 (Conv2D)            (None, 31, 31, 64)        51264     
_________________________________________________________________
max_pooling2d_3 (MaxPooling2 (None, 15, 15, 64)        0         
_________________________________________________________________
flatten_2 (Flatten)          (None, 14400)             0         
_________________________________________________________________
dense_5 (Dense)              (None, 1000)              14401000  
_________________________________________________________________
dense_6 (Dense)              (None, 11)                11011     
=================================================================
Total params: 14,465,707
Trainable params: 14,465,707
Non-trainable params: 0
_________________________________________________________________
None
Train on 88011 samples, validate on 10989 samples
Epoch 1/20

 1024/88011 [..............................] - ETA: 5s - loss: 9.5161 - accuracy: 0.0674
10240/88011 [==>...........................] - ETA: 0s - loss: 4.7152 - accuracy: 0.3559
…
snr: 16 acc: 0.10710987996306556
snr: 18 acc: 0.07878245299910475
acc_mean:  0.09629115898322393
110000
[0, 2, 4, 6, 8, 10, 12, 14, 16, 18]
['8PSK', 'AM-DSB', 'AM-SSB', 'BPSK', 'CPFSK', 'GFSK', 'PAM4', 'QAM16', 'QAM64', 'QPSK', 'WBFM']
Model: "model_1"
_________________________________________________________________
Layer (type)                 Output Shape              Param #   
=================================================================
input (InputLayer)           [(None, 2, 128, 1)]       0         
_________________________________________________________________
conv1 (Conv2D)               (None, 2, 128, 256)       4352      
_________________________________________________________________
max_pooling2d (MaxPooling2D) (None, 2, 64, 256)        0         
_________________________________________________________________
dropout_9 (Dropout)          (None, 2, 64, 256)        0         
_________________________________________________________________
conv2 (Conv2D)               (None, 2, 64, 128)        524416    
_________________________________________________________________
max_pooling2d_1 (MaxPooling2 (None, 2, 32, 128)        0         
_________________________________________________________________
dropout_10 (Dropout)         (None, 2, 32, 128)        0         
_________________________________________________________________
conv3 (Conv2D)               (None, 2, 32, 64)         131136    
_________________________________________________________________
max_pooling2d_2 (MaxPooling2 (None, 2, 16, 64)         0         
_________________________________________________________________
dropout_11 (Dropout)         (None, 2, 16, 64)         0         
_________________________________________________________________
conv4 (Conv2D)               (None, 2, 16, 64)         65600     
_________________________________________________________________
max_pooling2d_3 (MaxPooling2 (None, 2, 8, 64)          0         
_________________________________________________________________
dropout_12 (Dropout)         (None, 2, 8, 64)          0         
_________________________________________________________________
flatten_2 (Flatten)          (None, 1024)              0         
_________________________________________________________________
dense1 (Dense)               (None, 128)               131200    
_________________________________________________________________
dense2 (Dense)               (None, 11)                1419      
=================================================================
Total params: 858,123
Trainable params: 858,123
Non-trainable params: 0
_________________________________________________________________
None
Model: "sequential_2"
_________________________________________________________________
Layer (type)                 Output Shape              Param #   
=================================================================
conv2d_4 (Conv2D)            (None, 71, 71, 32)        2432      
_________________________________________________________________
max_pooling2d_2 (MaxPooling2 (None, 35, 35, 32)        0         
_________________________________________________________________
conv2d_5 (Conv2D)            (None, 31, 31, 64)        51264     
_________________________________________________________________
max_pooling2d_3 (MaxPooling2 (None, 15, 15, 64)        0         
_________________________________________________________________
flatten_2 (Flatten)          (None, 14400)             0         
_________________________________________________________________
dense_5 (Dense)              (None, 1000)              14401000  
_________________________________________________________________
dense_6 (Dense)              (None, 11)                11011     
=================================================================
Total params: 14,465,707
Trainable params: 14,465,707
Non-trainable params: 0
_________________________________________________________________
None
CA
snr: 0 acc: 0.5605338417540515
snr: 2 acc: 0.6863295880149812
snr: 4 acc: 0.7726872246696035
snr: 6 acc: 0.800734618916437
snr: 8 acc: 0.8216450216450216
snr: 10 acc: 0.8366606170598911
…
