…
WARNING:tensorflow:From D:\Anaconda3\envs\AMC\lib\site-packages\tensorflow_core\python\ops\resource_variable_ops.py:1635: calling BaseResourceVariable.__init__ (from tensorflow.python.ops.resource_variable_ops) with constraint is deprecated and will be removed in a future version.
Instructions for updating:
If using Keras pass *_constraint arguments to layers.
Model: "sequential"
_________________________________________________________________
Layer (type)                 Output Shape              Param #   
=================================================================
reshape (Reshape)            (None, 1, 128, 2)         0         
_________________________________________________________________
zero_padding2d (ZeroPadding2 (None, 1, 132, 2)         0         
_________________________________________________________________
conv2d (Conv2D)              (None, 1, 132, 256)       3328      
_________________________________________________________________
dropout (Dropout)            (None, 1, 132, 256)       0         
_________________________________________________________________
zero_padding2d_1 (ZeroPaddin (None, 1, 136, 256)       0         
_________________________________________________________________
conv2d_1 (Conv2D)            (None, 1, 136, 80)        122960    
_________________________________________________________________
dropout_1 (Dropout)          (None, 1, 136, 80)        0         
_________________________________________________________________
flatten (Flatten)            (None, 10880)             0         
_________________________________________________________________
dense1 (Dense)               (None, 256)               2785536   
_________________________________________________________________
dropout_2 (Dropout)          (None, 256)               0         
_________________________________________________________________
dense2 (Dense)               (None, 11)                2827      
_________________________________________________________________
activation (Activation)      (None, 11)                0         
_________________________________________________________________
reshape_1 (Reshape)          (None, 11)                0         
=================================================================
Total params: 2,914,651
Trainable params: 2,914,651
Non-trainable params: 0
_________________________________________________________________
Using TensorFlow backend.
channels_last
筛选后的数据集总数： 110000
信噪比范围: 0 到 18
调制方式 11 种: ['8PSK', 'AM-DSB', 'AM-SSB', 'BPSK', 'CPFSK', 'GFSK', 'PAM4', 'QAM16', 'QAM64', 'QPSK', 'WBFM']
Poisoned training data.
…
