110000
[0, 2, 4, 6, 8, 10, 12, 14, 16, 18]
['8PSK', 'AM-DSB', 'AM-SSB', 'BPSK', 'CPFSK', 'GFSK', 'PAM4', 'QAM16', 'QAM64', 'QPSK', 'WBFM']
(99000, 75, 75, 3)
(99000, 11)
channels_last
Model: "sequential_1"
_________________________________________________________________
Layer (type)                 Output Shape              Param #   
=================================================================
reshape (Reshape)            (None, 1, 128, 2)         0         
_________________________________________________________________
zero_padding2d (ZeroPadding2 (None, 1, 132, 2)         0         
_________________________________________________________________
conv2d_2 (Conv2D)            (None, 1, 132, 256)       3328      
_________________________________________________________________
dropout (Dropout)            (None, 1, 132, 256)       0         
_________________________________________________________________
zero_padding2d_1 (ZeroPaddin (None, 1, 136, 256)       0         
_________________________________________________________________
conv2d_3 (Conv2D)            (None, 1, 136, 80)        122960    
_________________________________________________________________
dropout_1 (Dropout)          (None, 1, 136, 80)        0         
_________________________________________________________________
flatten_1 (Flatten)          (None, 10880)             0         
_________________________________________________________________
dense1 (Dense)               (None, 256)               2785536   
_________________________________________________________________
dropout_2 (Dropout)          (None, 256)               0         
_________________________________________________________________
dense2 (Dense)               (None, 11)                2827      
_________________________________________________________________
activation (Activation)      (None, 11)                0         
_________________________________________________________________
reshape_1 (Reshape)          (None, 11)                0         
=================================================================
Total params: 2,914,651
Trainable params: 2,914,651
Non-trainable params: 0
_________________________________________________________________
channels_last
Model: "model"
_________________________________________________________________
Layer (type)                 Output Shape              Param #   
=================================================================
input (InputLayer)           [(None, 128, 2)]          0         
_________________________________________________________________
lstm (LSTM)                  [(None, 128, 32), (None,  4480      
_________________________________________________________________
dropout_3 (Dropout)          (None, 128, 32)           0         
_________________________________________________________________
lstm_1 (LSTM)                [(None, 128, 32), (None,  8320      
_________________________________________________________________
dense_2 (Dense)              (None, 32)                1056      
_________________________________________________________________
batch_normalization (BatchNo (None, 32)                128       
_________________________________________________________________
dropout_4 (Dropout)          (None, 32)                0         
_________________________________________________________________
dense_3 (Dense)              (None, 16)                528       
_________________________________________________________________
batch_normalization_1 (Batch (None, 16)                64        
_________________________________________________________________
dropout_5 (Dropout)          (None, 16)                0         
_________________________________________________________________
xc (Dense)                   (None, 11)                187       
=================================================================
Total params: 14,763
Trainable params: 14,667
Non-trainable params: 96
_________________________________________________________________
Train on 88011 samples, validate on 10989 samples
Epoch 1/100
 1024/88011 [..............................] - ETA: 2:57 - loss: 2.4067 - accuracy: 0.0879
…
